…
  [  3.00000000e+00   1.11970000e+04   1.00000000e+00   0.00000000e+00
     0.00000000e+00]
  ..., 
  [  … ..., 
  [  … ..., 
  [  … ..., 
  [  … Total 6678 unique tokens.
Shape of data tensor: (1108, 60, 20, 40)
Shape of label tensor: (1108, 2)
Total 400000 word vectors.
____________________________________________________________________________________________________
Layer (type)                     Output Shape          Param #     Connected to                     
====================================================================================================
input_3 (InputLayer)             (None, 60, 20, 40)    0                                            
____________________________________________________________________________________________________
time_distributed_2 (TimeDistribu (None, 60, 100)       788700      input_3[0][0]                    
____________________________________________________________________________________________________
aux_input (InputLayer)           (None, 60, 5)         0                                            
____________________________________________________________________________________________________
concatenate_1 (Concatenate)      (None, 60, 105)       0           time_distributed_2[0][0]         
                                                                   aux_input[0][0]                  
____________________________________________________________________________________________________
dense_1 (Dense)                  (None, 60, 100)       10600       concatenate_1[0][0]              
____________________________________________________________________________________________________
bidirectional_3 (Bidirectional)  (None, 60, 100)       60400       dense_1[0][0]                    
____________________________________________________________________________________________________
dense_2 (Dense)                  (None, 60, 1)         101         bidirectional_3[0][0]            
____________________________________________________________________________________________________
flatten_1 (Flatten)              (None, 60)            0           dense_2[0][0]                    
____________________________________________________________________________________________________
activation_1 (Activation)        (None, 60)            0           flatten_1[0][0]                  
____________________________________________________________________________________________________
repeat_vector_1 (RepeatVector)   (None, 100, 60)       0           activation_1[0][0]               
____________________________________________________________________________________________________
permute_1 (Permute)              (None, 60, 100)       0           repeat_vector_1[0][0]            
____________________________________________________________________________________________________
multiply_1 (Multiply)            (None, 60, 100)       0           bidirectional_3[0][0]            
                                                                   permute_1[0][0]                  
____________________________________________________________________________________________________
lambda_1 (Lambda)                (None, 100)           0           multiply_1[0][0]                 
____________________________________________________________________________________________________
dense_3 (Dense)                  (None, 2)             202         lambda_1[0][0]                   
====================================================================================================
Total params: 860,003
Trainable params: 860,003
Non-trainable params: 0
____________________________________________________________________________________________________
None
['loss', 'acc']
Train on 777 samples, validate on 110 samples
Epoch 1/3
 20/7
…
