Total 6918 unique tokens.
Shape of data tensor: (1284, 30, 20, 40)
Shape of label tensor: (1284, 2)
Total 400000 word vectors.
____________________________________________________________________________________________________
Layer (type)                     Output Shape          Param #     Connected to                     
====================================================================================================
input_3 (InputLayer)             (None, 30, 20, 40)    0                                            
____________________________________________________________________________________________________
time_distributed_2 (TimeDistribu (None, 30, 60)        745180      input_3[0][0]                    
____________________________________________________________________________________________________
bidirectional_3 (Bidirectional)  (None, 30, 60)        21840       time_distributed_2[0][0]         
____________________________________________________________________________________________________
dense_1 (Dense)                  (None, 30, 1)         61          bidirectional_3[0][0]            
____________________________________________________________________________________________________
flatten_1 (Flatten)              (None, 30)            0           dense_1[0][0]                    
____________________________________________________________________________________________________
activation_1 (Activation)        (None, 30)            0           flatten_1[0][0]                  
____________________________________________________________________________________________________
repeat_vector_1 (RepeatVector)   (None, 60, 30)        0           activation_1[0][0]               
____________________________________________________________________________________________________
permute_1 (Permute)              (None, 30, 60)        0           repeat_vector_1[0][0]            
____________________________________________________________________________________________________
multiply_1 (Multiply)            (None, 30, 60)        0           bidirectional_3[0][0]            
                                                                   permute_1[0][0]                  
____________________________________________________________________________________________________
lambda_1 (Lambda)                (None, 60)            0           multiply_1[0][0]                 
____________________________________________________________________________________________________
dense_2 (Dense)                  (None, 2)             122         lambda_1[0][0]                   
====================================================================================================
Total params: 767,203
Trainable params: 767,203
Non-trainable params: 0
____________________________________________________________________________________________________
None
['loss', 'acc']
Train on 900 samples, validate on 128 samples
Epoch 1/4
 20/9
…
